Starting iteration 0 of 48
Formatting data...
(23533, 25, 6)
(517, 25, 6)
(23533, 18)
(517, 18)
Data formatted.
Model: "sequential_75"
_________________________________________________________________
Layer (type)                 Output Shape              Param #   
=================================================================
conv1d_222 (Conv1D)          (None, 24, 64)            832       
_________________________________________________________________
max_pooling1d_170 (MaxPoolin (None, 12, 64)            0         
_________________________________________________________________
batch_normalization_153 (Bat (None, 12, 64)            256       
_________________________________________________________________
activation_153 (Activation)  (None, 12, 64)            0         
_________________________________________________________________
conv1d_223 (Conv1D)          (None, 11, 64)            8256      
_________________________________________________________________
max_pooling1d_171 (MaxPoolin (None, 5, 64)             0         
_________________________________________________________________
batch_normalization_154 (Bat (None, 5, 64)             256       
_________________________________________________________________
activation_154 (Activation)  (None, 5, 64)             0         
_________________________________________________________________
conv1d_224 (Conv1D)          (None, 4, 64)             8256      
_________________________________________________________________
batch_normalization_155 (Bat (None, 4, 64)             256       
_________________________________________________________________
activation_155 (Activation)  (None, 4, 64)             0         
_________________________________________________________________
flatten_69 (Flatten)         (None, 256)               0         
_________________________________________________________________
dense_138 (Dense)            (None, 100)               25700     
_________________________________________________________________
dense_139 (Dense)            (None, 18)                1818      
=================================================================
Total params: 45,630
Trainable params: 45,246
Non-trainable params: 384
_________________________________________________________________
Training...
Epoch 1/10
368/368 [==============================] - 9s 16ms/step - loss: 2.4426 - accuracy: 0.2182
Epoch 2/10
368/368 [==============================] - 7s 20ms/step - loss: 1.7843 - accuracy: 0.3440
…
