Starting iteration 0 of 48
Formatting data...
(23764, 25, 6)
(515, 25, 6)
(23764, 18)
(515, 18)
Data formatted.
Model: "sequential_28"
_________________________________________________________________
Layer (type)                 Output Shape              Param #   
=================================================================
conv1d_81 (Conv1D)           (None, 24, 128)           1664      
_________________________________________________________________
max_pooling1d_76 (MaxPooling (None, 12, 128)           0         
_________________________________________________________________
batch_normalization_12 (Batc (None, 12, 128)           512       
_________________________________________________________________
activation_12 (Activation)   (None, 12, 128)           0         
_________________________________________________________________
conv1d_82 (Conv1D)           (None, 11, 128)           32896     
_________________________________________________________________
max_pooling1d_77 (MaxPooling (None, 5, 128)            0         
_________________________________________________________________
batch_normalization_13 (Batc (None, 5, 128)            512       
_________________________________________________________________
activation_13 (Activation)   (None, 5, 128)            0         
_________________________________________________________________
conv1d_83 (Conv1D)           (None, 4, 128)            32896     
_________________________________________________________________
batch_normalization_14 (Batc (None, 4, 128)            512       
_________________________________________________________________
activation_14 (Activation)   (None, 4, 128)            0         
_________________________________________________________________
flatten_22 (Flatten)         (None, 512)               0         
_________________________________________________________________
dense_44 (Dense)             (None, 100)               51300     
_________________________________________________________________
dense_45 (Dense)             (None, 18)                1818      
=================================================================
Total params: 122,110
Trainable params: 121,342
Non-trainable params: 768
_________________________________________________________________
Training...
Epoch 1/10
372/372 [==============================] - 17s 39ms/step - loss: 2.3724 - accuracy: 0.2392
Epoch 2/10
372/372 [==============================] - 13s 36ms/step - loss: 1.5805 - accuracy: 0.3879
…
